C:\Users\VARUN\Desktop\CovidXRAY\Code\Model>python36 Model.py
_________________________________________________________________
Layer (type)                 Output Shape              Param #
=================================================================
conv2d (Conv2D)              (None, 99, 99, 128)       640
_________________________________________________________________
max_pooling2d (MaxPooling2D) (None, 49, 49, 128)       0
_________________________________________________________________
conv2d_1 (Conv2D)            (None, 47, 47, 256)       295168
_________________________________________________________________
max_pooling2d_1 (MaxPooling2 (None, 23, 23, 256)       0
_________________________________________________________________
conv2d_2 (Conv2D)            (None, 21, 21, 256)       590080
_________________________________________________________________
max_pooling2d_2 (MaxPooling2 (None, 10, 10, 256)       0
_________________________________________________________________
dropout (Dropout)            (None, 10, 10, 256)       0
_________________________________________________________________
flatten (Flatten)            (None, 25600)             0
_________________________________________________________________
dense (Dense)                (None, 512)               13107712
_________________________________________________________________
dense_1 (Dense)              (None, 128)               65664
_________________________________________________________________
dense_2 (Dense)              (None, 128)               16512
_________________________________________________________________
dense_3 (Dense)              (None, 4)                 516
=================================================================
Total params: 14,076,292
Trainable params: 14,076,292
Non-trainable params: 0
_________________________________________________________________
Epoch 1/25
2020-03-26 10:22:55.640566: I tensorflow/core/platform/cpu_feature_guard.cc:141] Your CPU supports instructions that this TensorFlow binary was not compiled to use: AVX AVX2
270/270 [==============================] - 96s 354ms/step - loss: 1.4742 - acc: 0.2370
…
